fisher_iris_weights.pth (torch, 3872 bytes, 2 tensors)

fll.weight f4 [4, 4]
0	0x3d4ccccd	0.05
1	0x3d4ccccd	0.05
2	0x3d7d0aaa	0.06177775
3	0x3d9cb78c	0.07652196
4	0x3ef5f79a	0.48040468
5	0x3e25c245	0.16187389
6	0x3f7193ce	0.9436616
7	0x3f9c4b74	1.2210526
8	0x3dc030ae	0.09384285
9	0x3d9c0520	0.07618165
10	0x3f24c96e	0.6436986
11	0x3f4d85e1	0.8028241
12	0x3d4ccccd	0.05
13	0x3e9256ab	0.28581747
14	0x3d4eed1c	0.050519094
15	0x3e1a2f63	0.15057139

sll.weight f4 [3, 4]
0	0x3e9de211	0.30836537
1	0x3f2de6a6	0.67930067
2	0x3f088010	0.5332041
3	0x3e3a9fff	0.18225096
4	0x3ed46015	0.41479555
5	0x3d9100f7	0.07080262
6	0x3f08ce74	0.5344002
7	0x3d5f61b1	0.054536525
8	0x3d4ccccd	0.05
9	0x3e40d4a9	0.18831123
10	0x3d4ccccd	0.05
11	0x3da8758f	0.082255475
