fisher_iris_weights_leaky.pth (torch, 4084 bytes, 2 tensors)

fll.weight f4 [4, 4]
000000 19 bb 02 3f 04 f1 93 3e 83 e0 07 bf 1a 70 24 bf
       0.5106674 0.28894818 -0.5307695 -0.64233553
000010 af 97 c4 3d ef e0 5b bd 6c d1 c0 3e 92 bb 6d 3d
       0.09599244 -0.05368131 0.37659776 0.05804021
000020 7a eb 03 be 3f 15 03 bf 91 c5 d2 3e f2 94 c6 3d
       -0.12882796 -0.51204294 0.41166356 0.09696378
000030 4e 80 9a be ca 54 33 bf 0c 91 53 be 02 12 85 be
       -0.30176014 -0.7005125 -0.206608 -0.259903

sll.weight f4 [3, 4]
000000 0e 71 36 3f 27 d1 3f be a3 fd 3b bf 50 88 aa be
       0.7126626 -0.18732129 -0.73433894 -0.33307123
000010 f5 86 a9 3e e6 45 39 3e fb 73 b1 3d a8 ce 8c 3e
       0.33110777 0.1809307 0.086647 0.27501416
000020 83 aa 1c bf f3 08 96 3e 2f f2 23 3e 18 a8 ca be
       -0.6119768 0.29303703 0.16010354 -0.3958137
