Iris_ExpNeuron_weights.pth (torch, 3978 bytes, 2 tensors)

fll.weight f4 [4, 4]
0	0x3f39cbbd	0.72576505
1	0x3f0c9ebc	0.5492971
2	0x3f11fbe7	0.57025
3	0x3e6faa17	0.23404728
4	0x3dc4f0dd	0.096162535
5	0x3ed61c44	0.4181844
6	0x3f420c71	0.75800234
7	0x3e0661b9	0.13123216
8	0x3e277cb7	0.16356169
9	0xbe4395a3	-0.1910005
10	0x3f25cc54	0.64764905
11	0x3f0c0357	0.54692596
12	0xbdff2825	-0.12458829
13	0xbe9de205	-0.30836502
14	0x3ec08b04	0.3760606
15	0x3f002b8a	0.50066435

sll.weight f4 [3, 4]
0	0x3f46760e	0.7752389
1	0x3e3ace8c	0.18242854
2	0xbf24d31c	-0.6438463
3	0x3d9840ff	0.07434272
4	0x3eb820fe	0.3596267
5	0x3d89f96a	0.06737025
6	0x3f0276c5	0.5096248
7	0xbf1f544b	-0.62237996
8	0x3cd0ec8e	0.025503423
9	0x3ecd9096	0.40149373
10	0xbc9421e6	-0.01808257
11	0x3f372363	0.7153837
