Iris_ExpNeuron_weights.pth (torch, 3102 bytes, 2 tensors)

fll.weight f4 [4, 4]
0	0xbe6d97c7	-0.2320243
1	0x3e4cecae	0.20012161
2	0x3df0c05a	0.11755438
3	0xbe2ed43f	-0.17073153
4	0xbe3e7a68	-0.18601382
5	0xbd9c0a49	-0.07619149
6	0x3e94ff86	0.291012
7	0x3ef316c1	0.47478297
8	0x3ef1a6d2	0.47197586
9	0x3eefd23c	0.46840084
10	0xbef8672b	-0.4851621
11	0xbeb84228	-0.35987973
12	0x3f3fee8b	0.7497336
13	0x3e2bd2b6	0.16779599
14	0x3f8d9431	1.106085
15	0x3f7574c0	0.9588127

sll.weight f4 [3, 4]
0	0x3e7d2e84	0.24724776
1	0xbb9c7d2b	-0.0047756634
2	0x3ee332dc	0.4437474
3	0x3ee28329	0.44240692
4	0x3e058b45	0.13041408
5	0xbeae5ee4	-0.3405677
6	0xbebb00bc	-0.36523998
7	0x3f4119ce	0.7543
8	0xbdf5cb3d	-0.12001655
9	0x3eb01517	0.3439109
10	0x3c5ea43e	0.013588963
11	0x3edb9f66	0.4289505
